ml2021spring-hw1/models/model.pth (torch_old, 25193 bytes, 3 tensors)

net.0.weight f4 [64, 93]
0.05000033 -0.0020813374 -0.027028328 0.009673405 -0.005710166 0.052833516 0.053092007 -0.019761035
0.059584137 -0.017752785 0.05489229 0.06599227 -0.09358219 -0.044520233 0.031657726 0.012143235
0.044370525 -0.011854963 0.035625674 -0.012433965 0.09660415 0.1737397 0.121305935 0.051188473
-0.09382004 0.04324086 -0.03510071 0.043201238 -0.02098416 -0.05709119 0.03511111 0.10944633
-0.08689235 -0.088595115 0.011267032 -0.04506815 0.165904 -0.010670405 -0.01849312 0.01860792
0.0078316545 0.01748039 -0.07786091 -0.1787788 -0.041995123 -0.10554939 -0.10063937 0.0390946
-0.09816505 -0.019384317 -0.08426969 -0.09633953 -0.04033785 0.118933655 0.11122642 -0.055779655
0.098236986 0.16050135 0.039115462 -0.07060814 -0.09199902 -0.17866318 0.008877355 -0.12081881
0.039688315 -0.023364646 0.101182275 -0.027218014 0.110665016 -0.1527256 0.031061675 -0.12648386
0.18729103 0.13032497 0.03525789 0.15409108 0.1345408 -0.105936855 0.005812545 -0.051799364
-0.014070231 -0.14120235 -0.0959294 -0.073131226 -0.023417398 0.0527533 -0.008857653 0.024387348
0.08623367 -0.0806744 0.047764353 0.08431692 0.27075773 0.019647645 -0.19358844 0.06089074
-0.0044913166 -0.04048391 -0.023005322 0.11062827 -0.07995093 -0.031947 -0.03789078 0.03759854
-0.02465754 0.036281496 0.18495676 0.0067667873 0.05984631 -0.073520295 -0.009775624 -0.07405729
-0.00057194784 0.111073166 0.1892302 0.024648398 0.16478579 0.096532054 0.052384824 -0.06481335
0.14715597 0.074244164 0.00021761995 -0.0424246 0.051455207 -0.26951343 -0.04855925 0.13170822
0.07450022 0.0995582 -0.12627564 0.0049184267 0.034054868 -0.0031988744 0.072833136 0.06781258
-0.03532286 -0.033472944 0.10975007 0.053396706 0.07292122 0.019207213 -0.06917475 0.012563611
0.08017945 0.04859296 -0.056010116 -0.059844986 0.038837716 -0.07599181 -0.008475932 0.13611099
-0.08083505 -0.099959895 -0.0033918226 0.06868504 0.02649705 0.03177442 -0.049910635 -0.0066320174
-0.14133415 0.061606385 -0.03524426 -0.07160437 -0.013968264 -0.034539245 -0.111019254 -0.047426883
0.52130574 -0.02953916 0.07688114 0.01661721 -0.031060476 0.0132363895 -0.15779595 -0.017832156
-0.1874323 0.0678376 -0.002809155 0.12527321 0.05139777 0.02219988 0.111063614 0.02681826
0.030479942 -0.1919587 0.012500993 -0.20440073 0.0071407408 -0.010449439 -0.22117355 0.08527806
0.03618064 0.02507553 0.089846335 0.058907982 0.08930164 -0.069198295 0.03344173 0.013779757
-0.008952555 0.21707979 0.03439172 -0.16682136 0.056795392 0.081706375 0.0580802 0.19246976
0.13985156 0.06885722 -0.02912697 0.03053026 -0.2642579 0.10541411 0.09497539 0.04202658
0.0027471606 0.1762776 -0.07807818 0.030055534 -0.008279381 -0.08918917 0.039321758 -0.12420478
-0.033522073 0.09384408 0.011537741 0.051071577 0.05526785 -0.0912934 -0.103545666 0.072922945
-0.0034902017 0.099800624 -0.16328126 0.0013414874 -0.16999121 -0.052779935 0.14478682 -0.011116503
-0.0541023 -0.061423443 -0.10694577 -0.054639313 0.061792996 -0.01834213 -0.052632105 -0.05545312
0.016132025 0.016745375 0.1422244 0.15943892 -0.24759646 -0.05957787 -0.15429044 0.120104566
00000000: 25cd 4c3d 0c67 08bb 836a ddbc 347d 1e3c
00000010: 581c bbbb f567 583d 0177 593d e5e1 a1bc
00000020: 7f0e 743d 4a6e 91bc bdd6 603d f526 873d
00000030: 05a8 bfbd d95a 36bd 88ab 013d 6bf4 463c
00000040: debd 353d 523b 42bc 3aec 113d d4b7 4bbc
00000050: 66d8 c53d d2e8 313e 3f6f f83d 01ab 513d
00000060: b924 c0bd 541d 313d c3c5 0fbd c8f3 303d
00000070: f9e6 abbc 74d8 69bd abd0 0f3d 6625 e03d
00000080: 9ef4 b1bd 5b71 b5bd 5b99 383c 6199 38bd
00000090: bde2 293e ecd2 2ebc e27e 97bc a36f 983c
000000a0: 5750 003c 0933 8f3c 8a75 9fbd ca11 37be
000000b0: 1403 2cbd 472a d8bd 041c cebd a921 203d
000000c0: c20a c9bd dccb 9ebc 9695 acbd a94d c5bd
000000d0: 4d39 25bd 7d93 f33d adca e33d 3579 64bd
000000e0: 7930 c93d 775a 243e 8937 203d 009b 90bd
000000f0: fb69 bcbd 7bf3 36be 5372 113c da6f f7bd
00000100: 3790 223d 3767 bfbc a738 cf3d 50f8 debc
00000110: 57a4 e23d 1a64 1cbe 0e75 fe3c fc84 01be
00000120: 38c9 3f3e e973 053e 946a 103d 0dca 1d3e
00000130: 10c5 093e 6cf5 d8bd 2977 be3b 922b 54bd
00000140: d386 66bc 5997 10be a276 c4bd d3c5 95bd
00000150: d8d5 bfbc d813 583d b01f 11bc fac7 c73c
00000160: 479b b03d 9f38 a5bd 8ea4 433d 59ae ac3d
00000170: c2a0 8a3e 19f4 a03c 0c3c 46be 9268 793d
00000180: e52b 93bb 75d2 25bd a875 bcbc 1391 e23d
00000190: 50bd a3bd dcda 02bd 5d33 1bbd ed00 1a3d
000001a0: 9cfe c9bc e89b 143d 4e65 3d3e edbb dd3b
000001b0: 6821 753d cf91 96bd f029 20bc 59ab 97bd
000001c0: c5ee 15ba 547a e33d 90c5 413e 70eb c93c
000001d0: 9bbd 283e 99b2 c53d 7891 563d ddbc 84bd
000001e0: 0eb0 163e 530d 983d e930 6439 6bc5 2dbd
000001f0: b2c2 523d aafd 89be 10e6 46bd 85de 063e
00000200: 9293 983d 2be5 cb3d 674e 01be c12a a13b
00000210: 1e7d 0b3d 35a4 51bb 8a29 953d 52e1 8a3d
00000220: b4ae 10bd ed1a 09bd a5c4 e03d 81b6 5a3d
00000230: b857 953d 7258 9d3c 7eab 8dbd 9bd7 4d3c
00000240: 2035 a43d 6909 473d dd6a 65bd 0420 75bd
00000250: 4c14 1f3d 98a1 9bbd a3de 0abc ae60 0b3e
00000260: d98c a5bd c6b7 ccbd 5749 5ebb beaa 8c3d
00000270: 5710 d93c e525 023d 186f 4cbd 6551 d9bb
00000280: e6b9 10be fa56 7c3d 495c 10bd 50a5 92bd
00000290: 25db 64bc 0679 0dbd 105e e3bd b142 42bd
000002a0: 4b74 053f 1cfc f1bc dc73 9d3d d120 883c
000002b0: 8a72 febc 71dd 583c 4395 21be be14 92bc
000002c0: 41ee 3fbe 71ee 8a3d cd19 38bb 9f47 003e
000002d0: 7886 523d 86dc b53c 5275 e33d f8b1 db3c
000002e0: 12b1 f93c d290 44be f7d0 4c3c 6d4e 51be
000002f0: e0fc e93b 2034 2bbc 527b 62be 43a6 ae3d
00000300: 2732 143d 336b cd3c 5b01 b83d 7f49 713d
00000310: c7e3 b63d d6b7 8dbd 32fa 083d 7dc4 613c
00000320: bdad 12bc 2a4a 5e3e 55de 0c3d 38d3 2abe
00000330: 49a2 683d ac55 a73d 81e5 6d3d cb16 453e
00000340: 3f35 0f3e 0405 8d3d af9b eebc 991a fa3c
00000350: d04c 87be 5ae3 d73d 7582 c23d 1024 2c3d
00000360: b509 343b 1d82 343e 74e7 9fbd 0637 f63c
00000370: 3ea6 07bc d0a8 b6bd da0f 213d 135f febd
00000380: 714e 09bd 5331 c03d cb08 3d3c 6e30 513d
00000390: 8b60 623d 09f8 babd c00f d4bd a058 953d
000003a0: debb 64bb 4564 cc3d 3433 27be d9d4 af3a
000003b0: 2d12 2ebe c62f 58bd ff42 143e fe21 36bc
000003c0: 609a 5dbd 2697 7bbd 6206 dbbd 79cd 5fbd
000003d0: a71a 7d3d 3c42 96bc c394 57bd d022 63bd
000003e0: 4f27 843c 992d 893c 46a3 113e f543 233e
000003f0: ed89 7dbe ed07 74bd 50fe 1dbe 62f9 f53d

net.0.bias f4 [64]
0.3692968 0.8641403 0.930849 -0.12795748 -0.20027718 0.1004794 -0.044373408 -0.08876106
0.1551876 0.47568053 -0.14184774 0.9525143 0.05925205 1.46882 -0.19246086 0.40456855
0.2066034 0.49932984 -0.20338793 0.28776786 0.3934158 0.41982916 -0.22231595 -0.19195284
-0.021733807 0.29335168 0.2516102 0.62932825 -0.03236499 -0.028198142 0.2728637 0.74681246
0.23092201 0.79344904 0.3054091 -0.16668217 -0.048198856 0.17952959 0.48878416 0.50422007
-0.22800654 0.08925708 -0.109262146 -0.18235461 0.259045 0.2611212 0.022876142 0.34292296
0.2113724 0.5257848 0.24981673 0.69568926 0.124533266 0.3019489 0.4430044 0.79112697
0.07740564 -0.068485536 0.5691049 0.7301787 0.07034857 0.3507443 -0.22514923 -0.046651173
00000000: 7814 bd3e 4c38 5d3f 1f4c 6e3f 4907 03be
00000010: 7615 4dbe 25c8 cd3d e4c0 35bd 5cc8 b5bd
00000020: 80e9 1e3e 668c f33e 8940 11be fad7 733f
00000030: 47b2 723d 4b02 bc3f 7614 45be 9c23 cf3e
00000040: d78f 533e 29a8 ff3e ed44 50be 4f56 933e
00000050: cc6d c93e d9f3 d63e cba6 63be 498f 44be
00000060: 190b b2bc 3132 963e 0dd3 803e a81b 213f
00000070: 2791 04bd caff e6bc cab4 8b3e 1a2f 3f3f
00000080: d276 6c3e 7a1f 4b3f 955e 9c3e bbae 2abe
00000090: 2a6c 45bd 9bd6 373e eb41 fa3e 9114 013f
000000a0: 8c7a 69be 6acc b63d d5c4 dfbd 2bbb 3abe
000000b0: 8ca1 843e aeb1 853e bf66 bb3c 9993 af3e
000000c0: 0272 583e d599 063f f5cf 7f3e b118 323f
000000d0: 4c0b ff3d 0c99 9a3e 79d1 e23e 4c87 4a3f
000000e0: d986 9e3d 2542 8cbd dcb0 113f feec 3a3f
000000f0: e912 903d c294 b33e 858d 66be 4d15 3fbd

net.2.weight f4 [1, 64]
0.366142 0.75773096 0.9266651 0.22089823 0.2846196 0.28033134 0.49596608 0.3838575
0.8050527 0.6038328 0.72072154 0.7716165 0.7865887 1.2266948 -0.7424576 0.34310788
0.54970115 0.6915667 0.5340627 -0.885956 0.8678864 0.91633093 0.46303347 0.38310203
0.41504562 0.53195626 0.35065588 0.59220487 0.34088048 0.4136801 0.5805665 0.6367486
0.15683666 0.87515205 0.41640204 0.39436436 0.2748434 0.63259524 0.04440977 0.70615035
0.5270042 0.34634084 0.2058688 0.27400833 0.31602922 0.4548628 0.23002352 0.5230406
0.47321698 0.36645672 0.47162005 0.800759 0.4434151 0.5096604 0.31878328 0.72319883
0.45203283 0.52554536 0.53614527 0.72121525 -0.011225688 0.5897552 0.66785985 0.030709375
00000000: f776 bb3e a8fa 413f ed39 6d3f 2533 623e
00000010: a9b9 913e 9787 8f3e 44ef fd3e f888 c43e
00000020: ef17 4e3f c994 1a3f 3581 383f a988 453f
00000030: e15d 493f 5604 9d3f b411 3ebf d6ab af3e
00000040: 37b9 0c3f 840a 313f 55b8 083f 03ce 62bf
00000050: ce2d 5e3f aa94 6a3f b912 ed3e f325 c43e
00000060: dc80 d43e 492e 083f 2b89 b33e bd9a 173f
00000070: e387 ae3e e1cd d33e 02a0 143f f501 233f
00000080: ca99 203e f709 603f a632 d53e 20ea c93e
00000090: 46b8 8c3e c3f1 213f 05e7 353d 45c6 343f
000000a0: bfe9 063f 9653 b13e 45cf 523e d24a 8c3e
000000b0: 95ce a13e c7e3 e83e 498b 6b3e fde5 053f
000000c0: 7f49 f23e 37a0 bb3e 2f78 f13e 8bfe 4c3f
000000d0: 4e07 e33e 1b79 023f 9037 a33e 8f23 393f
000000e0: d970 e73e 248a 063f d140 093f 90a1 383f
000000f0: f3eb 37bc 32fa 163f ddf8 2a3f 3a92 fb3c
